capstone-projects/dip-final/models/keypoint_classifier.tflite (tflite, 6632 bytes, 6 tensors)

sequential/dense/BiasAdd/ReadVariableOp f4 [20]
00000000: ebb5 73bf 0fe3 b6bd 0731 b6be ade2 73bf
00000010: a043 73bd f6d3 4fbf f049 21bf f2a8 40bf
00000020: d643 1cbf a09b ebbe 382e 17bf 19bb 763f
00000030: 3af1 8abe 6ccb 01bf 1215 edbe 843d 0bbf
00000040: 6664 ebbe 181c 633e 34ad 3bbf dcb5 cebe
-0.9519946 -0.08930027 -0.3558428 -0.95267755 -0.059390664 -0.811828 -0.63003445 -0.7525779
-0.6104101 -0.4601717 -0.590549 0.9637924 -0.27137166 -0.5070102 -0.46305138 -0.5439074
-0.45975035 0.22178686 -0.7331116 -0.40373123

sequential/dense_2/BiasAdd/ReadVariableOp f4 [6]
00000000: 7e72 303d e33c 1fbe 9d14 40be 63ad 3e3d
00000010: 3d71 ce3e 31b7 0fbe
0.04307794 -0.1555057 -0.18757863 0.046552073 0.4032077 -0.14034726

sequential/dense_1/BiasAdd/ReadVariableOp f4 [10]
00000000: 43ad dd3d 3252 dbbd 4d1b 643f 7bad d33d
00000010: c24b 2a3f c7be f83c 6498 553f b260 853e
00000020: 470e f2bc fbde e93e
0.10824063 -0.10709037 0.8910416 0.10335823 0.6652185 0.030364407 0.83435655 0.26050335
-0.029547824 0.45677933

sequential/dense/MatMul f4 [20, 42]
00000000: caed 063e 6416 83bd 0789 81bf ebfb eabe
00000010: e06a 01bf 459b 4abe 8ace 0dbf 848c 17be
00000020: cf3a 51bd c0b7 883a 9205 8cbe c4ef a3be
00000030: e5b5 8abe 6c32 50be 031f 933c de2f b23d
00000040: 929b c83d f3ff 0a3e 90ab d1bd 6764 afbd
00000050: 419b 9dbe 459c 3dbd 8c9d 4d3d 5947 6f3d
00000060: b4d9 673e aad3 14bb 86f5 f53c ea51 e4bd
00000070: 1856 29be 35bc 29bd 8c69 0b3d 556d 48bd
00000080: 776d 063e dc32 dbbd b385 033d dba4 8b3d
00000090: 78f2 48be 2351 2cbd c06c d8bd 5598 a63c
000000a0: bed9 a2ba 1ac8 80bd 986e 803e 94ff d43d
000000b0: cf90 6d3e f008 783f 8028 c93e 9aee 0d3f
000000c0: a1e1 363f 761a 883e f468 fa3e 633c 873e
000000d0: 2ee6 18be 808b e93c 7210 3c3d fad6 853d
000000e0: 7d79 3cbe 78ab 843d 23a1 34be 2038 7b3d
000000f0: a1a2 8fbe 45e4 05bc b7c8 343e b912 f43d
00000100: d2eb 9bbc 8034 5f3d c599 b3be 32ab ec3d
00000110: c0df cd3d 7bd9 38be f4e0 5a3d 3ac7 96bd
00000120: af0c d0be 04db 84be b913 40bf e8b7 90be
00000130: 1b4c a13e e3ee 71be f008 2d3e 6c91 ecbd
00000140: e935 76be 4fa3 aabe 7b27 f5be e7cf 22bf
00000150: 82aa 95be 183e 8f3e fe35 bc3e 4ae8 fe3e
00000160: 48f5 b33e 830b ed3d e8dd e43e f7af 79bc
00000170: 6f5c 5c3f 02df 6abc 41c9 88be ba62 14be
00000180: 9194 6abe 8412 883d f994 05be 2bad 16bd
00000190: 2fdb 99be 8cb6 a2bd 5506 70be 1e94 d0bd
000001a0: b71d 3ebe a4cc 153e 4bfe 96be 0860 ad3d
000001b0: 2688 6bbe cd95 d13d 46d1 a7bc a6ca a9bd
000001c0: a389 67bd b9e9 313e 2877 dcbe 7f21 413d
000001d0: a1e5 04bf e027 52be cdf1 b23e 1705 0f3e
000001e0: bf16 5d3c 7fa4 7f3e 4755 7dbe f9c3 1b3e
000001f0: 7a42 ebbe 4119 e23b 4f9c 8cbe 0648 3e3e
00000200: 52dd c2be d61f 48be 81c5 64be 8ab2 f3bd
00000210: 618d 263e 344a a4be 040c 783e 54b1 733a
00000220: 8815 49be 9ed3 42be 52ce 49bd 0e19 c4be
00000230: f205 42bd e806 80bc 4e8d 34ba ba94 823d
00000240: 8f28 193c b61a bbbe f016 cbba f674 f3bc
00000250: c0f6 4dbd 88e7 b33d 0bb5 89bd 3140 a23d
00000260: d808 ba3d ad49 70be 2294 0b3d 737b d5bd
00000270: d182 673c b307 683d 8ea0 8d3c c292 a33d
00000280: e0dc dc3d 41ee c2be 9e75 17ba 86e1 45be
00000290: f0d9 84bc d490 9f3d a30b bcba 5233 c43d
000002a0: 0cb3 953d 90f9 d7bc da22 82be 1363 633e
000002b0: fe60 4fbf a7e7 db3d 7676 76bf 4f7d 5c3d
000002c0: 6fbc 70bf 7768 eb3b 7398 063e 08b4 c1bd
000002d0: ec8c f63c 1be1 90bd a933 ca3d fa7f b3bc
000002e0: 1cbb c4bd f9a6 833c 7128 2d3e e871 6bbd
000002f0: 2a7a b13d 4826 673c bc57 983e 31bf 9c3d
00000300: d7c0 013d 8f65 b53d ee25 533d 4a54 9bbd
00000310: 2ebe 033e 4d2a af3d 8464 c83e 8791 0b3e
00000320: c667 573f c302 5a3e 8aca 7ebd b334 0b3e
00000330: e48c 253e 367c 973e 9371 7b3e 7117 813e
00000340: 0e01 fa3e 4a82 ba3e 40d1 eebd dca7 7ebd
00000350: cee0 52bf 5c28 f13d d430 0fbf e847 d1bc
00000360: bf64 aabe 596d 54be 0f48 a7bd a92a 1dbe
00000370: 696a 0cbf 44fe 8bbd a28c ccbe 7cc7 893c
00000380: 4dfe e5bc a3df 04bd bc27 3c3e a34b fe3c
00000390: 84e7 ccbe feaf abbd 46e4 90be f0e7 65bb
000003a0: 784d 2e3e d435 9c3d 2ad0 c03e af01 6a3d
000003b0: 140e a0be 1e0d 66bd 447f 7bbe 2ee6 64bd
000003c0: fca2 4d3e e538 ce3c 7f72 9d3e 5d62 8dbc
000003d0: bbc8 aebc c37b ffbc b923 bebe a139 a23c
000003e0: 9295 d7bb 2590 1dbd ac6d 9c3d fc49 99bc
000003f0: 8e09 97bd 90ad 273e 68ab 6fbd 789e 4f3e
0.13176647 -0.06400755 -1.0119942 -0.45895323 -0.50553703 -0.19785793 -0.5539328 -0.14799696
-0.051081475 0.0010430738 -0.27348 -0.32018864 -0.270919 -0.20331734 0.017959123 0.08700536
0.09795298 0.135742 -0.10237801 -0.08564072 -0.30782512 -0.04629161 0.050199077 0.05841765
0.22641641 -0.002270917 0.030024301 -0.11148436 -0.16536748 -0.041439254 0.034036204 -0.048932392
0.13127695 -0.1070306 0.032109927 0.06818553 -0.19623744 -0.042069566 -0.105676174 0.02033631
-0.0012424511 -0.06288166 0.25084376 0.1040031 0.23199771 0.9688864 0.39288712 0.554422
0.7143803 0.26582688 0.48908198 0.2641326 -0.14931557 0.028508902 0.04591412 0.06535144
-0.18405719 0.064780176 -0.17639594 0.06133282 -0.28053764 -0.0081720995 0.17654692 0.119176336
-0.019033346 0.054493427 -0.35078254 0.115560904 0.100524426 -0.18051712 0.05343719 -0.07362218
-0.40634677 -0.25948346 -0.75030094 -0.2826531 0.31503376 -0.23626284 0.1689794 -0.115511745
-0.24044003 -0.3332772 -0.47881684 -0.63598484 -0.2923165 0.2797706 0.36759943 0.49786597
0.35148072 0.11574461 0.4470055 -0.015239707 0.8607854 -0.014335396 -0.26716045 -0.14490786
-0.22908236 0.066441566 -0.1304511 -0.03678624 -0.30050036 -0.07944974 -0.23439915 -0.10184501
-0.18566023 0.14628845 -0.29490885 0.08465582 -0.23001155 0.1023365 -0.020485532 -0.08290605
-0.056527745 0.17374314 -0.4305966 0.047151085 -0.51912886 -0.20523024 0.34950104 0.13966785
0.013494193 0.24965094 -0.24739562 0.15211476 -0.45949155 0.006899983 -0.27463004 0.18582162
-0.3805948 -0.19543394 -0.22340967 -0.11899288 0.1626487 -0.32087862 0.24223334 0.00092961383
-0.1963712 -0.19026038 -0.049269028 -0.38300365 -0.04736895 -0.015628293 -0.0006887511 0.063760236
0.009348049 -0.36543816 -0.0015494507 -0.029718857 -0.050284147 0.087843955 -0.06723984 0.079224
0.09083718 -0.23465605 0.034076817 -0.10423937 0.01413031 0.056647968 0.017288473 0.07986976
0.10784316 -0.38072398 -0.0005777719 -0.19324312 -0.016217202 0.07791296 -0.001434673 0.09580101
0.07309541 -0.026364118 -0.25417215 0.22205763 -0.81007373 0.107375436 -0.9627451 0.05383044
-0.94037527 0.007184084 0.13144092 -0.09458166 0.030096494 -0.070741855 0.09873135 -0.02191161
-0.09606001 0.01607083 0.16909958 -0.057481676 0.08665879 0.014108248 0.29754436 0.07653654
0.031678047 0.088572614 0.051549844 -0.07584436 0.12865517 0.0855299 0.39139187 0.13629733
0.8414272 0.21290116 -0.062204875 0.13594322 0.16167027 0.29586953 0.24555044 0.25213197
0.4882893 0.36427528 -0.11661005 -0.062171802 -0.82374275 0.11775276 -0.5593388 -0.025546983
-0.33279988 -0.20744838 -0.08168041 -0.15348305 -0.5484987 -0.06835607 -0.39951044 0.016818754
-0.028075362 -0.03243984 0.18374532 0.031041926 -0.40020382 -0.08383177 -0.2829916 -0.0035080872
0.1702174 0.076274544 0.37658817 0.05713051 -0.3126074 -0.056164853 -0.24560267 -0.05588358
0.20081705 0.025173614 0.30751416 -0.017258817 -0.02133595 -0.031186944 -0.3713663 0.01980287
-0.0065791095 -0.038467545 0.07638106 -0.018712036 -0.07374869 0.16374803 -0.058513075 0.20275295

sequential/dense_1/MatMul f4 [10, 20]
00000000: 33ba 093f 5769 1e3f 16f2 5a3e ac47 a53e
00000010: d6e2 123e e539 973e 0410 34be db03 903b
00000020: c403 543f bdee 5b3f 05e0 c1be ff0a e53e
00000030: ae62 7fba a5ab 4b3f 5a8f 703f 5286 f8ba
00000040: c3b4 543f 868b 99bd d5ab eabd 238e e33e
00000050: 8a15 453f 867a 27bd 21cd b63b 6da1 143f
00000060: 9046 b9bd 6f9a 4ebf ab8b e73e 117b fdbe
00000070: 6b55 08bf 3e5e dbbd 463a 2e3f 7369 5ebd
00000080: 3584 56bd 6fb6 4b3e b5c4 86be fa9a 0abe
00000090: 25a0 34bd 3942 c2bd 735c 3e3f d369 edbc
000000a0: 7a92 47bf 3f6e 49be 45b9 1dbf 0d0d 6f3f
000000b0: 5ac6 1dbf 7de1 4ebe 6b4e 363f f23e 983d
000000c0: 4a79 153d 1e62 8bbe a1e9 aabf 4389 8e3e
000000d0: 8d68 85be 5bac 4b3f b4f9 50bd 4612 4cbd
000000e0: 65db 12bc 8002 eebe b9cc babb cca9 223c
000000f0: 7ee0 15bf 20bf 0abf fafd 143f 629f 57be
00000100: f62e ba3e 645a ddbe a850 f7be c71a c2be
00000110: a71b 193d 6d10 143f f64e e13e 712c 6f3e
00000120: 845e 173f d300 bfbc 2308 d0bd 61af 623f
00000130: 7ad4 57bd b0fc 103f 8fa1 25bf fb15 903e
00000140: 0d72 243c 7f91 0c3f ec65 ddbd c660 cbbe
00000150: 5c58 c6be 8ac5 8abe 1c83 36bf 2d16 83bd
00000160: 7385 fb3d 5031 383f 03c0 583e 0c71 40bf
00000170: cb00 8dbc 68d2 663e e9a0 a23f cb03 073f
00000180: 6eb8 a93e beaf 73bf 4492 df3d 2c90 2e3f
00000190: a979 8c3e 40d5 063f ffae 083f 6fcd 663d
000001a0: 604f 7e3e 3c79 5b3f 256c fcbd 5b3f 533e
000001b0: 9dd6 ff3e cf36 6abe 45c4 8c3e 0297 ff3e
000001c0: 715a 833f 63a7 1c3e 7db7 9e3c 6a33 cc3e
000001d0: f5e1 e8bc b2f2 673f d5f7 ff3d 99f2 28bb
000001e0: 38bc ed3d ec00 ccbe 00e3 fa3e f524 c93e
000001f0: 64ac de3d dcdb bf3e c152 633f 2af8 513f
00000200: b5f9 9f3e d43f 03bf e9bd a53d 0df1 d7bd
00000210: 1127 633e 4d1d a13e ec53 cabe 24a0 dfbe
00000220: 10c9 67bd 11e7 db3d fc74 203f 8175 5abe
00000230: 9628 113d 99b0 a03e e030 0dbf 12b4 643f
00000240: e702 903d d0f1 1b3f cb56 793f e37c 2b3f
00000250: dd4d 233f a466 e4be a404 173f cde2 603c
00000260: d597 b7be 5d97 7f3e 7351 74bf c6f1 53be
00000270: 97ac 883c 0318 84be 48bd e23e 2b8c f03e
00000280: 52f3 9f3e a0e4 423f ad18 553f e49b 8cbe
00000290: 8070 b03f c9cd 5c3f ffce 903e 331b ed3e
000002a0: 25fd 403f bc02 4d3f 9d42 063f 0139 2d3f
000002b0: 97ae 483f 0c22 513d 782b 30bd e05c 333f
000002c0: 41f0 453e 20a1 193f bd34 973d a636 1d3f
000002d0: fce6 29be d28d 9ebe f87d 0a3f 8626 a4be
000002e0: af02 e23e 2d94 0abe 81a4 edbe eb0f 9bbe
000002f0: e93b a13d 33f6 953e f606 b83d f60c 813e
00000300: 5a6d 1fbf ff18 b53e 47ae a53e 8634 73bf
00000310: 6b04 30be 6f3e 8fbf 1d7c c5be 2c4d 94be
0.5379974 0.61879486 0.21381411 0.32281244 0.14344344 0.29536358 -0.17584234 0.004394991
0.82818246 0.8591116 -0.37866226 0.44734952 -0.00097421824 0.79558784 0.9396874 -0.0018960929
0.8308832 -0.07497315 -0.114585556 0.4444438 0.7698599 -0.04088833 0.0055786525 0.58058816
-0.09046662 -0.80704397 0.45223746 -0.49507955 -0.5325534 -0.10711335 0.6805767 -0.054299783
-0.052372176 0.19893812 -0.2632195 -0.13535681 -0.04409804 -0.09485287 0.74359816 -0.028981125
-0.7795788 -0.19670962 -0.61610824 0.9337929 -0.61630785 -0.20203204 0.71213406 0.07433881
0.036492623 -0.27223295 -1.3352548 0.27839097 -0.26056328 0.7955987 -0.051019385 -0.049822114
-0.008963441 -0.46486282 -0.0057006744 0.009928178 -0.5854567 -0.54197884 0.5820004 -0.21056893
0.36363953 -0.43233025 -0.48303723 -0.37911054 0.037379887 0.57837564 0.44005555 0.23356797
0.59128594 -0.023315823 -0.10157802 0.88548857 -0.052692868 0.5663557 -0.64699644 0.2814177
0.010036957 0.5490951 -0.10810456 -0.3972227 -0.38739288 -0.27103835 -0.7129381 -0.06400714
0.12281313 0.71950245 0.21166997 -0.75172496 -0.017212292 0.22541201 1.2705356 0.5274016
0.3314852 -0.95190036 0.1091657 0.6818874 0.2743657 0.52669144 0.5339202 0.05634826
0.24834967 0.85731864 -0.123253144 0.20629637 0.49968424 -0.2287247 0.27493492 0.49919897
1.0261976 0.15298228 0.019374603 0.39882976 -0.028428057 0.906047 0.12498442 -0.0025779365
0.116081655 -0.39844453 0.49001312 0.39286008 0.10872725 0.37472427 0.8879815 0.82019293
0.312452 -0.5126927 0.08092863 -0.10544024 0.22182871 0.31467667 -0.39517152 -0.43676865
-0.056588233 0.10737432 0.62678504 -0.21333887 0.035439096 0.31384733 -0.551527 0.89337265
0.070318036 0.6091585 0.9739806 0.66987437 0.63790685 -0.4460956 0.58991456 0.0137259485
-0.35858026 0.24960084 -0.9543678 -0.20697698 0.01668386 -0.2579957 0.44285035 0.4698194
0.31240326 0.76130104 0.8324078 -0.27462685 1.3784332 0.86251503 0.28282925 0.46309814
0.7538627 0.800823 0.52445394 0.67665106 0.783914 0.05105786 -0.043010205 0.7006359
0.19329931 0.6001148 0.07383106 0.6141151 -0.1659202 -0.30967575 0.54098463 -0.3206064
0.44142672 -0.13533087 -0.4641457 -0.30285582 0.07872755 0.29289398 0.08985703 0.252052
-0.6227623 0.35370633 0.32359526 -0.9500202 -0.17189185 -1.1190928 -0.38571253 -0.28965127

sequential/dense_2/MatMul f4 [6, 10]
00000000: b52e a53e be46 4bbf 64b5 71be a518 873f
00000010: 2a10 d83e 645f 663f b8ca 58bf 17a4 09bf
00000020: 32c8 163f 7d85 423f a5ce 473f 8e86 9e3f
00000030: 46ad c73e fdf7 113e cbf3 90bf 95bc eb3e
00000040: 9743 9abd 251b 2f3f f899 3b3f 4364 25bf
00000050: 5975 2dbf f570 4d3f 06ae 84bf 78e0 08bf
00000060: 0132 15c0 6a29 3d3f 586f 903f 08d5 09bf
00000070: c67f 1a3f 4ff9 03bf 4635 d93e c02b 66bf
00000080: 3ff2 8bbf cab3 a43e 073e 1a3f 0315 10bf
00000090: d636 acbf eae9 a5be 10e9 df3e c601 3dbe
000000a0: cf7a dbbf 4424 d73e fbb4 2c3f afb0 84be
000000b0: f740 3abf c747 95bf a416 373f b8d9 a63c
000000c0: 5f05 04bf 4546 18bf a758 fe3e 9546 82bf
000000d0: 95fb 603f d684 18bf 2c05 403e 0071 37be
000000e0: 0ecf 3ebe 3b96 96bf 5f35 b9bf 7b9e 5d3f
0.32262197 -0.7940482 -0.23604351 1.0554396 0.42199832 0.89989305 -0.84684324 -0.53766006
0.58899224 0.75984937 0.7804969 1.2384813 0.38999385 0.14254756 -1.13244 0.46042314
-0.07532423 0.68400794 0.7328181 -0.6460611 -0.67757183 0.80250484 -1.0365608 -0.5346751
-2.331177 0.7389132 1.128398 -0.53840685 0.60351217 -0.5155229 0.42423457 -0.8991051
-1.0933303 0.32168418 0.60250896 -0.5628206 -1.3454235 -0.32405025 0.437325 -0.18457708
-1.7146853 0.42019856 0.67463654 -0.2591605 -0.7275538 -1.166253 0.7151892 0.020367488
-0.51570696 -0.5948222 0.4967701 -1.017779 0.87883884 -0.5957769 0.18751973 -0.179142
-0.18633673 -1.1764597 -1.4469413 0.86569947
